…
del...
===> model summary
==========================================================================================================================================================================
Layer (type:depth-idx)                        Input Shape               Output Shape              Kernel Shape              Param #                   Mult-Adds
==========================================================================================================================================================================
├─Sequential: 1-1                             [-1, 3, 96, 96]           [-1, 32, 96, 96]          --                        --                        --
|    └─Conv2d: 2-1                            [-1, 3, 96, 96]           [-1, 32, 96, 96]          --                        928                       896
├─Sequential: 1-2                             [-1, 32, 96, 96]          [-1, 32, 96, 96]          --                        --                        --
|    └─FFG: 2-2                               [-1, 32, 96, 96]          [-1, 32, 96, 96]          --                        --                        --
|    |    └─MAB: 3-1                          [-1, 32, 96, 96]          [-1, 32, 96, 96]          --                        --                        --
|    |    |    └─Sequential: 4-1              [-1, 32, 96, 96]          [-1, 32, 96, 96]          --                        --                        --
|    |    |    |    └─Conv2d: 5-1             [-1, 32, 96, 96]          [-1, 32, 96, 96]          [32, 32, 3, 3]            9,248                     84,934,656
|    |    |    |    └─LeakyReLU: 5-2          [-1, 32, 96, 96]          [-1, 32, 96, 96]          --                        --                        --
|    |    |    └─Sequential: 4-2              [-1, 32, 96, 96]          [-1, 32, 96, 96]          --                        --                        --
|    |    |    |    └─Conv2d: 5-3             [-1, 32, 96, 96]          [-1, 32, 96, 96]          [32, 32, 3, 3]            9,248                     84,934,656
|    |    |    └─Conv2d: 4-3                  [-1, 32, 96, 96]          [-1, 8, 96, 96]           [32, 8, 1, 1]             264                       2,359,296
|    |    |    └─Conv2d: 4-4                  [-1, 8, 96, 96]           [-1, 8, 48, 48]           [8, 8, 3, 3]              584                       1,327,104
|    |    |    └─MaxPool2d: 4-5               [-1, 8, 48, 48]           [-1, 8, 14, 14]           --                        --                        --
|    |    |    └─Sequential: 4-6              [-1, 8, 14, 14]           [-1, 8, 14, 14]           --                        --                        --
|    |    |    |    └─Conv2d: 5-4             [-1, 8, 14, 14]           [-1, 8, 14, 14]           [8, 8, 3, 3]              584                       112,896
|    |    |    |    └─LeakyReLU: 5-5          [-1, 8, 14, 14]           [-1, 8, 14, 14]           --                        --                        --
|    |    |    └─Sequential: 4-7              [-1, 8, 14, 14]           [-1, 8, 14, 14]           --                        --                        --
|    |    |    |    └─Conv2d: 5-6             [-1, 8, 14, 14]           [-1, 8, 14, 14]           [8, 8, 3, 3]              584                       112,896
|    |    |    |    └─LeakyReLU: 5-7          [-1, 8, 14, 14]           [-1, 8, 14, 14]           --                        --                        --
|    |    |    └─Sequential: 4-8              [-1, 8, 96, 96]           [-1, 32, 96, 96]          --                        --                        --
|    |    |    |    └─Conv2d: 5-8             [-1, 8, 96, 96]           [-1, 32, 96, 96]          [8, 32, 1, 1]             288                       2,359,296
|    |    |    |    └─ReLU: 5-9               [-1, 32, 96, 96]          [-1, 32, 96, 96]          --                        --                        --
|    |    |    └─Sigmoid: 4-9                 [-1, 32, 96, 96]          [-1, 32, 96, 96]          --                        --                        --
|    |    |    └─Sequential: 4-10             [-1, 32, 96, 96]          [-1, 32, 96, 96]          --                        --                        --
|    |    |    |    └─Conv2d: 5-10            [-1, 32, 96, 96]          [-1, 32, 96, 96]          [32, 32, 1, 1]            1,056                     9,437,184
|    |    |    └─Sequential: 4-11             [-1, 32, 96, 96]          [-1, 32, 96, 96]          --                        --                        --
|    |    |    |    └─Conv2d: 5-11            [-1, 32, 96, 96]          [-1, 32, 96, 96]          [1, 32, 5, 5]             832                       7,372,800
|    |    |    └─Sigmoid: 4-12                [-1, 32, 96, 96]          [-1, 32, 96, 96]          --                        --                        --
|    |    └─MAB: 3-2                          [-1, 32, 96, 96]          [-1, 32, 96, 96]          --                        --                        --
|    |    |    └─Sequential: 4-13             [-1, 32, 96, 96]          [-1, 32, 96, 96]          --                        --                        --
|    |    |    |    └─Conv2d: 5-12            [-1, 32, 96, 96]          [-1, 32, 96, 96]          [32, 32, 3, 3]            9,248                     84,934,656
|    |    |    |    └─LeakyReLU: 5-13         [-1, 32, 96, 96]          [-1, 32, 96, 96]          --                        --                        --
|    |    |    └─Sequential: 4-14             [-1, 32, 96, 96]          [-1, 32, 96, 96]          --                        --                        --
|    |    |    |    └─Conv2d: 5-14            [-1, 32, 96, 96]          [-1, 32, 96, 96]          [32, 32, 3, 3]            9,248                     84,934,656
|    |    |    └─Conv2d: 4-15                 [-1, 32, 96, 96]          [-1, 8, 96, 96]           [32, 8, 1, 1]             264                       2,359,296
|    |    |    └─Conv2d: 4-16                 [-1, 8, 96, 96]           [-1, 8, 48, 48]           [8, 8, 3, 3]              584                       1,327,104
|    |    |    └─MaxPool2d: 4-17              [-1, 8, 48, 48]           [-1, 8, 14, 14]           --                        --                        --
|    |    |    └─Sequential: 4-18             [-1, 8, 14, 14]           [-1, 8, 14, 14]           --                        --                        --
|    |    |    |    └─Conv2d: 5-15            [-1, 8, 14, 14]           [-1, 8, 14, 14]           [8, 8, 3, 3]              584                       112,896
|    |    |    |    └─LeakyReLU: 5-16         [-1, 8, 14, 14]           [-1, 8, 14, 14]           --                        --                        --
|    |    |    └─Sequential: 4-19             [-1, 8, 14, 14]           [-1, 8, 14, 14]           --                        --                        --
|    |    |    |    └─Conv2d: 5-17            [-1, 8, 14, 14]           [-1, 8, 14, 14]           [8, 8, 3, 3]              584                       112,896
|    |    |    |    └─LeakyReLU: 5-18         [-1, 8, 14, 14]           [-1, 8, 14, 14]           --                        --                        --
|    |    |    └─Sequential: 4-20             [-1, 8, 96, 96]           [-1, 32, 96, 96]          --                        --                        --
|    |    |    |    └─Conv2d: 5-19            [-1, 8, 96, 96]           [-1, 32, 96, 96]          [8, 32, 1, 1]             288                       2,359,296
|    |    |    |    └─ReLU: 5-20              [-1, 32, 96, 96]          [-1, 32, 96, 96]          --                        --                        --
|    |    |    └─Sigmoid: 4-21                [-1, 32, 96, 96]          [-1, 32, 96, 96]          --                        --                        --
|    |    |    └─Sequential: 4-22             [-1, 32, 96, 96]          [-1, 32, 96, 96]          --                        --                        --
|    |    |    |    └─Conv2d: 5-21            [-1, 32, 96, 96]          [-1, 32, 96, 96]          [32, 32, 1, 1]            1,056                     9,437,184
|    |    |    └─Sequential: 4-23             [-1, 32, 96, 96]          [-1, 32, 96, 96]          --                        --                        --
|    |    |    |    └─Conv2d: 5-22            [-1, 32, 96, 96]          [-1, 32, 96, 96]          [1, 32, 5, 5]             832                       7,372,800
|    |    |    └─Sigmoid: 4-24                [-1, 32, 96, 96]          [-1, 32, 96, 96]          --                        --                        --
|    |    └─MAB: 3-3                          [-1, 32, 96, 96]          [-1, 32, 96, 96]          --                        --                        --
|    |    |    └─Sequential: 4-25             [-1, 32, 96, 96]          [-1, 32, 96, 96]          --                        --                        --
|    |    |    |    └─Conv2d: 5-23            [-1, 32, 96, 96]          [-1, 32, 96, 96]          [32, 32, 3, 3]            9,248                     84,934,656
|    |    |    |    └─LeakyReLU: 5-24         [-1, 32, 96, 96]          [-1, 32, 96, 96]          --                        --                        --
|    |    |    └─Sequential: 4-26             [-1, 32, 96, 96]          [-1, 32, 96, 96]          --                        --                        --
|    |    |    |    └─Conv2d: 5-25            [-1, 32, 96, 96]          [-1, 32, 96, 96]          [32, 32, 3, 3]            9,248                     84,934,656
|    |    |    └─Conv2d: 4-27                 [-1, 32, 96, 96]          [-1, 8, 96, 96]           [32, 8, 1, 1]             264                       2,359,296
|    |    |    └─Conv2d: 4-28                 [-1, 8, 96, 96]           [-1, 8, 48, 48]           [8, 8, 3, 3]              584                       1,327,104
|    |    |    └─MaxPool2d: 4-29              [-1, 8, 48, 48]           [-1, 8, 14, 14]           --                        --                        --
|    |    |    └─Sequential: 4-30             [-1, 8, 14, 14]           [-1, 8, 14, 14]           --                        --                        --
|    |    |    |    └─Conv2d: 5-26            [-1, 8, 14, 14]           [-1, 8, 14, 14]           [8, 8, 3, 3]              584                       112,896
|    |    |    |    └─LeakyReLU: 5-27         [-1, 8, 14, 14]           [-1, 8, 14, 14]           --                        --                        --
|    |    |    └─Sequential: 4-31             [-1, 8, 14, 14]           [-1, 8, 14, 14]           --                        --                        --
|    |    |    |    └─Conv2d: 5-28            [-1, 8, 14, 14]           [-1, 8, 14, 14]           [8, 8, 3, 3]              584                       112,896
|    |    |    |    └─LeakyReLU: 5-29         [-1, 8, 14, 14]           [-1, 8, 14, 14]           --                        --                        --
|    |    |    └─Sequential: 4-32             [-1, 8, 96, 96]           [-1, 32, 96, 96]          --                        --                        --
|    |    |    |    └─Conv2d: 5-30            [-1, 8, 96, 96]           [-1, 32, 96, 96]          [8, 32, 1, 1]             288                       2,359,296
|    |    |    |    └─ReLU: 5-31              [-1, 32, 96, 96]          [-1, 32, 96, 96]          --                        --                        --
|    |    |    └─Sigmoid: 4-33                [-1, 32, 96, 96]          [-1, 32, 96, 96]          --                        --                        --
|    |    |    └─Sequential: 4-34             [-1, 32, 96, 96]          [-1, 32, 96, 96]          --                        --                        --
|    |    |    |    └─Conv2d: 5-32            [-1, 32, 96, 96]          [-1, 32, 96, 96]          [32, 32, 1, 1]            1,056                     9,437,184
|    |    |    └─Sequential: 4-35             [-1, 32, 96, 96]          [-1, 32, 96, 96]          --                        --                        --
|    |    |    |    └─Conv2d: 5-33            [-1, 32, 96, 96]          [-1, 32, 96, 96]          [1, 32, 5, 5]             832                       7,372,800
|    |    |    └─Sigmoid: 4-36                [-1, 32, 96, 96]          [-1, 32, 96, 96]          --                        --                        --
|    |    └─MAB: 3-4                          [-1, 32, 96, 96]          [-1, 32, 96, 96]          --                        --                        --
|    |    |    └─Sequential: 4-37             [-1, 32, 96, 96]          [-1, 32, 96, 96]          --                        --                        --
|    |    |    |    └─Conv2d: 5-34            [-1, 32, 96, 96]          [-1, 32, 96, 96]          [32, 32, 3, 3]            9,248                     84,934,656
|    |    |    |    └─LeakyReLU: 5-35         [-1, 32, 96, 96]          [-1, 32, 96, 96]          --                        --                        --
|    |    |    └─Sequential: 4-38             [-1, 32, 96, 96]          [-1, 32, 96, 96]          --                        --                        --
|    |    |    |    └─Conv2d: 5-36            [-1, 32, 96, 96]          [-1, 32, 96, 96]          [32, 32, 3, 3]            9,248                     84,934,656
|    |    |    └─Conv2d: 4-39                 [-1, 32, 96, 96]          [-1, 8, 96, 96]           [32, 8, 1, 1]             264                       2,359,296
|    |    |    └─Conv2d: 4-40                 [-1, 8, 96, 96]           [-1, 8, 48, 48]           [8, 8, 3, 3]              584                       1,327,104
|    |    |    └─MaxPool2d: 4-41              [-1, 8, 48, 48]           [-1, 8, 14, 14]           --                        --                        --
|    |    |    └─Sequential: 4-42             [-1, 8, 14, 14]           [-1, 8, 14, 14]           --                        --                        --
|    |    |    |    └─Conv2d: 5-37            [-1, 8, 14, 14]           [-1, 8, 14, 14]           [8, 8, 3, 3]              584                       112,896
|    |    |    |    └─LeakyReLU: 5-38         [-1, 8, 14, 14]           [-1, 8, 14, 14]           --                        --                        --
|    |    |    └─Sequential: 4-43             [-1, 8, 14, 14]           [-1, 8, 14, 14]           --                        --                        --
|    |    |    |    └─Conv2d: 5-39            [-1, 8, 14, 14]           [-1, 8, 14, 14]           [8, 8, 3, 3]              584                       112,896
|    |    |    |    └─LeakyReLU: 5-40         [-1, 8, 14, 14]           [-1, 8, 14, 14]           --                        --                        --
|    |    |    └─Sequential: 4-44             [-1, 8, 96, 96]           [-1, 32, 96, 96]          --                        --                        --
|    |    |    |    └─Conv2d: 5-41            [-1, 8, 96, 96]           [-1, 32, 96, 96]          [8, 32, 1, 1]             288                       2,359,296
|    |    |    |    └─ReLU: 5-42              [-1, 32, 96, 96]          [-1, 32, 96, 96]          --                        --                        --
|    |    |    └─Sigmoid: 4-45                [-1, 32, 96, 96]          [-1, 32, 96, 96]          --                        --                        --
|    |    |    └─Sequential: 4-46             [-1, 32, 96, 96]          [-1, 32, 96, 96]          --                        --                        --
|    |    |    |    └─Conv2d: 5-43            [-1, 32, 96, 96]          [-1, 32, 96, 96]          [32, 32, 1, 1]            1,056                     9,437,184
|    |    |    └─Sequential: 4-47             [-1, 32, 96, 96]          [-1, 32, 96, 96]          --                        --                        --
|    |    |    |    └─Conv2d: 5-44            [-1, 32, 96, 96]          [-1, 32, 96, 96]          [1, 32, 5, 5]             832                       7,372,800
|    |    |    └─Sigmoid: 4-48                [-1, 32, 96, 96]          [-1, 32, 96, 96]          --                        --                        --
|    |    └─Conv2d: 3-5                       [-1, 64, 96, 96]          [-1, 32, 96, 96]          --                        2,112                     2,080
|    |    └─Conv2d: 3-6                       [-1, 64, 96, 96]          [-1, 32, 96, 96]          --                        2,112                     2,080
|    |    └─Conv2d: 3-7                       [-1, 64, 96, 96]          [-1, 32, 96, 96]          --                        2,112                     2,080
|    |    └─Scale: 3-8                        [-1, 32, 96, 96]          [-1, 32, 96, 96]          --                        1                         0
|    |    └─Scale: 3-9                        [-1, 32, 96, 96]          [-1, 32, 96, 96]          --                        1                         0
|    └─FFG: 2-3                               [-1, 32, 96, 96]          [-1, 32, 96, 96]          --                        --                        --
|    |    └─MAB: 3-10                         [-1, 32, 96, 96]          [-1, 32, 96, 96]          --                        --                        --
|    |    |    └─Sequential: 4-49             [-1, 32, 96, 96]          [-1, 32, 96, 96]          --                        --                        --
|    |    |    |    └─Conv2d: 5-45            [-1, 32, 96, 96]          [-1, 32, 96, 96]          [32, 32, 3, 3]            9,248                     84,934,656
|    |    |    |    └─LeakyReLU: 5-46         [-1, 32, 96, 96]          [-1, 32, 96, 96]          --                        --                        --
|    |    |    └─Sequential: 4-50             [-1, 32, 96, 96]          [-1, 32, 96, 96]          --                        --                        --
|    |    |    |    └─Conv2d: 5-47            [-1, 32, 96, 96]          [-1, 32, 96, 96]          [32, 32, 3, 3]            9,248                     84,934,656
|    |    |    └─Conv2d: 4-51                 [-1, 32, 96, 96]          [-1, 8, 96, 96]           [32, 8, 1, 1]             264                       2,359,296
|    |    |    └─Conv2d: 4-52                 [-1, 8, 96, 96]           [-1, 8, 48, 48]           [8, 8, 3, 3]              584                       1,327,104
|    |    |    └─MaxPool2d: 4-53              [-1, 8, 48, 48]           [-1, 8, 14, 14]           --                        --                        --
|    |    |    └─Sequential: 4-54             [-1, 8, 14, 14]           [-1, 8, 14, 14]           --                        --                        --
|    |    |    |    └─Conv2d: 5-48            [-1, 8, 14, 14]           [-1, 8, 14, 14]           [8, 8, 3, 3]              584                       112,896
|    |    |    |    └─LeakyReLU: 5-49         [-1, 8, 14, 14]           [-1, 8, 14, 14]           --                        --                        --
|    |    |    └─Sequential: 4-55             [-1, 8, 14, 14]           [-1, 8, 14, 14]           --                        --                        --
|    |    |    |    └─Conv2d: 5-50            [-1, 8, 14, 14]           [-1, 8, 14, 14]           [8, 8, 3, 3]              584                       112,896
|    |    |    |    └─LeakyReLU: 5-51         [-1, 8, 14, 14]           [-1, 8, 14, 14]           --                        --                        --
|    |    |    └─Sequential: 4-56             [-1, 8, 96, 96]           [-1, 32, 96, 96]          --                        --                        --
|    |    |    |    └─Conv2d: 5-52            [-1, 8, 96, 96]           [-1, 32, 96, 96]          [8, 32, 1, 1]             288                       2,359,296
|    |    |    |    └─ReLU: 5-53              [-1, 32, 96, 96]          [-1, 32, 96, 96]          --                        --                        --
|    |    |    └─Sigmoid: 4-57                [-1, 32, 96, 96]          [-1, 32, 96, 96]          --                        --                        --
|    |    |    └─Sequential: 4-58             [-1, 32, 96, 96]          [-1, 32, 96, 96]          --                        --                        --
|    |    |    |    └─Conv2d: 5-54            [-1, 32, 96, 96]          [-1, 32, 96, 96]          [32, 32, 1, 1]            1,056                     9,437,184
|    |    |    └─Sequential: 4-59             [-1, 32, 96, 96]          [-1, 32, 96, 96]          --                        --                        --
|    |    |    |    └─Conv2d: 5-55            [-1, 32, 96, 96]          [-1, 32, 96, 96]          [1, 32, 5, 5]             832                       7,372,800
|    |    |    └─Sigmoid: 4-60                [-1, 32, 96, 96]          [-1, 32, 96, 96]          --                        --                        --
|    |    └─MAB: 3-11                         [-1, 32, 96, 96]          [-1, 32, 96, 96]          --                        --                        --
|    |    |    └─Sequential: 4-61             [-1, 32, 96, 96]          [-1, 32, 96, 96]          --                        --                        --
|    |    |    |    └─Conv2d: 5-56            [-1, 32, 96, 96]          [-1, 32, 96, 96]          [32, 32, 3, 3]            9,248                     84,934,656
|    |    |    |    └─LeakyReLU: 5-57         [-1, 32, 96, 96]          [-1, 32, 96, 96]          --                        --                        --
|    |    |    └─Sequential: 4-62             [-1, 32, 96, 96]          [-1, 32, 96, 96]          --                        --                        --
|    |    |    |    └─Conv2d: 5-58            [-1, 32, 96, 96]          [-1, 32, 96, 96]          [32, 32, 3, 3]            9,248                     84,934,656
|    |    |    └─Conv2d: 4-63                 [-1, 32, 96, 96]          [-1, 8, 96, 96]           [32, 8, 1, 1]             264                       2,359,296
|    |    |    └─Conv2d: 4-64                 [-1, 8, 96, 96]           [-1, 8, 48, 48]           [8, 8, 3, 3]              584                       1,327,104
|    |    |    └─MaxPool2d: 4-65              [-1, 8, 48, 48]           [-1, 8, 14, 14]           --                        --                        --
|    |    |    └─Sequential: 4-66             [-1, 8, 14, 14]           [-1, 8, 14, 14]           --                        --                        --
|    |    |    |    └─Conv2d: 5-59            [-1, 8, 14, 14]           [-1, 8, 14, 14]           [8, 8, 3, 3]              584                       112,896
|    |    |    |    └─LeakyReLU: 5-60         [-1, 8, 14, 14]           [-1, 8, 14, 14]           --                        --                        --
|    |    |    └─Sequential: 4-67             [-1, 8, 14, 14]           [-1, 8, 14, 14]           --                        --                        --
|    |    |    |    └─Conv2d: 5-61            [-1, 8, 14, 14]           [-1, 8, 14, 14]           [8, 8, 3, 3]              584                       112,896
|    |    |    |    └─LeakyReLU: 5-62         [-1, 8, 14, 14]           [-1, 8, 14, 14]           --                        --                        --
|    |    |    └─Sequential: 4-68             [-1, 8, 96, 96]           [-1, 32, 96, 96]          --                        --                        --
|    |    |    |    └─Conv2d: 5-63            [-1, 8, 96, 96]           [-1, 32, 96, 96]          [8, 32, 1, 1]             288                       2,359,296
|    |    |    |    └─ReLU: 5-64              [-1, 32, 96, 96]          [-1, 32, 96, 96]          --                        --                        --
|    |    |    └─Sigmoid: 4-69                [-1, 32, 96, 96]          [-1, 32, 96, 96]          --                        --                        --
|    |    |    └─Sequential: 4-70             [-1, 32, 96, 96]          [-1, 32, 96, 96]          --                        --                        --
|    |    |    |    └─Conv2d: 5-65            [-1, 32, 96, 96]          [-1, 32, 96, 96]          [32, 32, 1, 1]            1,056                     9,437,184
|    |    |    └─Sequential: 4-71             [-1, 32, 96, 96]          [-1, 32, 96, 96]          --                        --                        --
|    |    |    |    └─Conv2d: 5-66            [-1, 32, 96, 96]          [-1, 32, 96, 96]          [1, 32, 5, 5]             832                       7,372,800
|    |    |    └─Sigmoid: 4-72                [-1, 32, 96, 96]          [-1, 32, 96, 96]          --                        --                        --
|    |    └─MAB: 3-12                         [-1, 32, 96, 96]          [-1, 32, 96, 96]          --                        --                        --
|    |    |    └─Sequential: 4-73             [-1, 32, 96, 96]          [-1, 32, 96, 96]          --                        --                        --
|    |    |    |    └─Conv2d: 5-67            [-1, 32, 96, 96]          [-1, 32, 96, 96]          [32, 32, 3, 3]            9,248                     84,934,656
|    |    |    |    └─LeakyReLU: 5-68         [-1, 32, 96, 96]          [-1, 32, 96, 96]          --                        --                        --
|    |    |    └─Sequential: 4-74             [-1, 32, 96, 96]          [-1, 32, 96, 96]          --                        --                        --
|    |    |    |    └─Conv2d: 5-69            [-1, 32, 96, 96]          [-1, 32, 96, 96]          [32, 32, 3, 3]            9,248                     84,934,656
|    |    |    └─Conv2d: 4-75                 [-1, 32, 96, 96]          [-1, 8, 96, 96]           [32, 8, 1, 1]             264                       2,359,296
|    |    |    └─Conv2d: 4-76                 [-1, 8, 96, 96]           [-1, 8, 48, 48]           [8, 8, 3, 3]              584                       1,327,104
|    |    |    └─MaxPool2d: 4-77              [-1, 8, 48, 48]           [-1, 8, 14, 14]           --                        --                        --
|    |    |    └─Sequential: 4-78             [-1, 8, 14, 14]           [-1, 8, 14, 14]           --                        --                        --
|    |    |    |    └─Conv2d: 5-70            [-1, 8, 14, 14]           [-1, 8, 14, 14]           [8, 8, 3, 3]              584                       112,896
|    |    |    |    └─LeakyReLU: 5-71         [-1, 8, 14, 14]           [-1, 8, 14, 14]           --                        --                        --
|    |    |    └─Sequential: 4-79             [-1, 8, 14, 14]           [-1, 8, 14, 14]           --                        --                        --
|    |    |    |    └─Conv2d: 5-72            [-1, 8, 14, 14]           [-1, 8, 14, 14]           [8, 8, 3, 3]              584                       112,896
|    |    |    |    └─LeakyReLU: 5-73         [-1, 8, 14, 14]           [-1, 8, 14, 14]           --                        --                        --
|    |    |    └─Sequential: 4-80             [-1, 8, 96, 96]           [-1, 32, 96, 96]          --                        --                        --
|    |    |    |    └─Conv2d: 5-74            [-1, 8, 96, 96]           [-1, 32, 96, 96]          [8, 32, 1, 1]             288                       2,359,296
|    |    |    |    └─ReLU: 5-75              [-1, 32, 96, 96]          [-1, 32, 96, 96]          --                        --                        --
|    |    |    └─Sigmoid: 4-81                [-1, 32, 96, 96]          [-1, 32, 96, 96]          --                        --                        --
|    |    |    └─Sequential: 4-82             [-1, 32, 96, 96]          [-1, 32, 96, 96]          --                        --                        --
|    |    |    |    └─Conv2d: 5-76            [-1, 32, 96, 96]          [-1, 32, 96, 96]          [32, 32, 1, 1]            1,056                     9,437,184
|    |    |    └─Sequential: 4-83             [-1, 32, 96, 96]          [-1, 32, 96, 96]          --                        --                        --
|    |    |    |    └─Conv2d: 5-77            [-1, 32, 96, 96]          [-1, 32, 96, 96]          [1, 32, 5, 5]             832                       7,372,800
|    |    |    └─Sigmoid: 4-84                [-1, 32, 96, 96]          [-1, 32, 96, 96]          --                        --                        --
|    |    └─MAB: 3-13                         [-1, 32, 96, 96]          [-1, 32, 96, 96]          --                        --                        --
|    |    |    └─Sequential: 4-85             [-1, 32, 96, 96]          [-1, 32, 96, 96]          --                        --                        --
|    |    |    |    └─Conv2d: 5-78            [-1, 32, 96, 96]          [-1, 32, 96, 96]          [32, 32, 3, 3]            9,248                     84,934,656
|    |    |    |    └─LeakyReLU: 5-79         [-1, 32, 96, 96]          [-1, 32, 96, 96]          --                        --                        --
|    |    |    └─Sequential: 4-86             [-1, 32, 96, 96]          [-1, 32, 96, 96]          --                        --                        --
|    |    |    |    └─Conv2d: 5-80            [-1, 32, 96, 96]          [-1, 32, 96, 96]          [32, 32, 3, 3]            9,248                     84,934,656
|    |    |    └─Conv2d: 4-87                 [-1, 32, 96, 96]          [-1, 8, 96, 96]           [32, 8, 1, 1]             264                       2,359,296
|    |    |    └─Conv2d: 4-88                 [-1, 8, 96, 96]           [-1, 8, 48, 48]           [8, 8, 3, 3]              584                       1,327,104
|    |    |    └─MaxPool2d: 4-89              [-1, 8, 48, 48]           [-1, 8, 14, 14]           --                        --                        --
|    |    |    └─Sequential: 4-90             [-1, 8, 14, 14]           [-1, 8, 14, 14]           --                        --                        --
|    |    |    |    └─Conv2d: 5-81            [-1, 8, 14, 14]           [-1, 8, 14, 14]           [8, 8, 3, 3]              584                       112,896
|    |    |    |    └─LeakyReLU: 5-82         [-1, 8, 14, 14]           [-1, 8, 14, 14]           --                        --                        --
|    |    |    └─Sequential: 4-91             [-1, 8, 14, 14]           [-1, 8, 14, 14]           --                        --                        --
|    |    |    |    └─Conv2d: 5-83            [-1, 8, 14, 14]           [-1, 8, 14, 14]           [8, 8, 3, 3]              584                       112,896
|    |    |    |    └─LeakyReLU: 5-84         [-1, 8, 14, 14]           [-1, 8, 14, 14]           --                        --                        --
|    |    |    └─Sequential: 4-92             [-1, 8, 96, 96]           [-1, 32, 96, 96]          --                        --                        --
|    |    |    |    └─Conv2d: 5-85            [-1, 8, 96, 96]           [-1, 32, 96, 96]          [8, 32, 1, 1]             288                       2,359,296
|    |    |    |    └─ReLU: 5-86              [-1, 32, 96, 96]          [-1, 32, 96, 96]          --                        --                        --
|    |    |    └─Sigmoid: 4-93                [-1, 32, 96, 96]          [-1, 32, 96, 96]          --                        --                        --
|    |    |    └─Sequential: 4-94             [-1, 32, 96, 96]          [-1, 32, 96, 96]          --                        --                        --
|    |    |    |    └─Conv2d: 5-87            [-1, 32, 96, 96]          [-1, 32, 96, 96]          [32, 32, 1, 1]            1,056                     9,437,184
|    |    |    └─Sequential: 4-95             [-1, 32, 96, 96]          [-1, 32, 96, 96]          --                        --                        --
|    |    |    |    └─Conv2d: 5-88            [-1, 32, 96, 96]          [-1, 32, 96, 96]          [1, 32, 5, 5]             832                       7,372,800
|    |    |    └─Sigmoid: 4-96                [-1, 32, 96, 96]          [-1, 32, 96, 96]          --                        --                        --
|    |    └─Conv2d: 3-14                      [-1, 64, 96, 96]          [-1, 32, 96, 96]          --                        2,112                     2,080
|    |    └─Conv2d: 3-15                      [-1, 64, 96, 96]          [-1, 32, 96, 96]          --                        2,112                     2,080
|    |    └─Conv2d: 3-16                      [-1, 64, 96, 96]          [-1, 32, 96, 96]          --                        2,112                     2,080
|    |    └─Scale: 3-17                       [-1, 32, 96, 96]          [-1, 32, 96, 96]          --                        1                         0
|    |    └─Scale: 3-18                       [-1, 32, 96, 96]          [-1, 32, 96, 96]          --                        1                         0
|    └─FFG: 2-4                               [-1, 32, 96, 96]          [-1, 32, 96, 96]          --                        --                        --
|    |    └─MAB: 3-19                         [-1, 32, 96, 96]          [-1, 32, 96, 96]          --                        --                        --
|    |    |    └─Sequential: 4-97             [-1, 32, 96, 96]          [-1, 32, 96, 96]          --                        --                        --
|    |    |    |    └─Conv2d: 5-89            [-1, 32, 96, 96]          [-1, 32, 96, 96]          [32, 32, 3, 3]            9,248                     84,934,656
|    |    |    |    └─LeakyReLU: 5-90         [-1, 32, 96, 96]          [-1, 32, 96, 96]          --                        --                        --
|    |    |    └─Sequential: 4-98             [-1, 32, 96, 96]          [-1, 32, 96, 96]          --                        --                        --
|    |    |    |    └─Conv2d: 5-91            [-1, 32, 96, 96]          [-1, 32, 96, 96]          [32, 32, 3, 3]            9,248                     84,934,656
|    |    |    └─Conv2d: 4-99                 [-1, 32, 96, 96]          [-1, 8, 96, 96]           [32, 8, 1, 1]             264                       2,359,296
|    |    |    └─Conv2d: 4-100                [-1, 8, 96, 96]           [-1, 8, 48, 48]           [8, 8, 3, 3]              584                       1,327,104
|    |    |    └─MaxPool2d: 4-101             [-1, 8, 48, 48]           [-1, 8, 14, 14]           --                        --                        --
|    |    |    └─Sequential: 4-102            [-1, 8, 14, 14]           [-1, 8, 14, 14]           --                        --                        --
|    |    |    |    └─Conv2d: 5-92            [-1, 8, 14, 14]           [-1, 8, 14, 14]           [8, 8, 3, 3]              584                       112,896
|    |    |    |    └─LeakyReLU: 5-93         [-1, 8, 14, 14]           [-1, 8, 14, 14]           --                        --                        --
|    |    |    └─Sequential: 4-103            [-1, 8, 14, 14]           [-1, 8, 14, 14]           --                        --                        --
|    |    |    |    └─Conv2d: 5-94            [-1, 8, 14, 14]           [-1, 8, 14, 14]           [8, 8, 3, 3]              584                       112,896
|    |    |    |    └─LeakyReLU: 5-95         [-1, 8, 14, 14]           [-1, 8, 14, 14]           --                        --                        --
|    |    |    └─Sequential: 4-104            [-1, 8, 96, 96]           [-1, 32, 96, 96]          --                        --                        --
|    |    |    |    └─Conv2d: 5-96            [-1, 8, 96, 96]           [-1, 32, 96, 96]          [8, 32, 1, 1]             288                       2,359,296
|    |    |    |    └─ReLU: 5-97              [-1, 32, 96, 96]          [-1, 32, 96, 96]          --                        --                        --
|    |    |    └─Sigmoid: 4-105               [-1, 32, 96, 96]          [-1, 32, 96, 96]          --                        --                        --
|    |    |    └─Sequential: 4-106            [-1, 32, 96, 96]          [-1, 32, 96, 96]          --                        --                        --
|    |    |    |    └─Conv2d: 5-98            [-1, 32, 96, 96]          [-1, 32, 96, 96]          [32, 32, 1, 1]            1,056                     9,437,184
|    |    |    └─Sequential: 4-107            [-1, 32, 96, 96]          [-1, 32, 96, 96]          --                        --                        --
|    |    |    |    └─Conv2d: 5-99            [-1, 32, 96, 96]          [-1, 32, 96, 96]          [1, 32, 5, 5]             832                       7,372,800
|    |    |    └─Sigmoid: 4-108               [-1, 32, 96, 96]          [-1, 32, 96, 96]          --                        --                        --
|    |    └─MAB: 3-20                         [-1, 32, 96, 96]          [-1, 32, 96, 96]          --                        --                        --
|    |    |    └─Sequential: 4-109            [-1, 32, 96, 96]          [-1, 32, 96, 96]          --                        --                        --
|    |    |    |    └─Conv2d: 5-100           [-1, 32, 96, 96]          [-1, 32, 96, 96]          [32, 32, 3, 3]            9,248                     84,934,656
|    |    |    |    └─LeakyReLU: 5-101        [-1, 32, 96, 96]          [-1, 32, 96, 96]          --                        --                        --
|    |    |    └─Sequential: 4-110            [-1, 32, 96, 96]          [-1, 32, 96, 96]          --                        --                        --
|    |    |    |    └─Conv2d: 5-102           [-1, 32, 96, 96]          [-1, 32, 96, 96]          [32, 32, 3, 3]            9,248                     84,934,656
|    |    |    └─Conv2d: 4-111                [-1, 32, 96, 96]          [-1, 8, 96, 96]           [32, 8, 1, 1]             264                       2,359,296
|    |    |    └─Conv2d: 4-112                [-1, 8, 96, 96]           [-1, 8, 48, 48]           [8, 8, 3, 3]              584                       1,327,104
|    |    |    └─MaxPool2d: 4-113             [-1, 8, 48, 48]           [-1, 8, 14, 14]           --                        --                        --
|    |    |    └─Sequential: 4-114            [-1, 8, 14, 14]           [-1, 8, 14, 14]           --                        --                        --
|    |    |    |    └─Conv2d: 5-103           [-1, 8, 14, 14]           [-1, 8, 14, 14]           [8, 8, 3, 3]              584                       112,896
|    |    |    |    └─LeakyReLU: 5-104        [-1, 8, 14, 14]           [-1, 8, 14, 14]           --                        --                        --
|    |    |    └─Sequential: 4-115            [-1, 8, 14, 14]           [-1, 8, 14, 14]           --                        --                        --
|    |    |    |    └─Conv2d: 5-105           [-1, 8, 14, 14]           [-1, 8, 14, 14]           [8, 8, 3, 3]              584                       112,896
|    |    |    |    └─LeakyReLU: 5-106        [-1, 8, 14, 14]           [-1, 8, 14, 14]           --                        --                        --
|    |    |    └─Sequential: 4-116            [-1, 8, 96, 96]           [-1, 32, 96, 96]          --                        --                        --
|    |    |    |    └─Conv2d: 5-107           [-1, 8, 96, 96]           [-1, 32, 96, 96]          [8, 32, 1, 1]             288                       2,359,296
|    |    |    |    └─ReLU: 5-108             [-1, 32, 96, 96]          [-1, 32, 96, 96]          --                        --                        --
|    |    |    └─Sigmoid: 4-117               [-1, 32, 96, 96]          [-1, 32, 96, 96]          --                        --                        --
|    |    |    └─Sequential: 4-118            [-1, 32, 96, 96]          [-1, 32, 96, 96]          --                        --                        --
|    |    |    |    └─Conv2d: 5-109           [-1, 32, 96, 96]          [-1, 32, 96, 96]          [32, 32, 1, 1]            1,056                     9,437,184
|    |    |    └─Sequential: 4-119            [-1, 32, 96, 96]          [-1, 32, 96, 96]          --                        --                        --
|    |    |    |    └─Conv2d: 5-110           [-1, 32, 96, 96]          [-1, 32, 96, 96]          [1, 32, 5, 5]             832                       7,372,800
|    |    |    └─Sigmoid: 4-120               [-1, 32, 96, 96]          [-1, 32, 96, 96]          --                        --                        --
|    |    └─MAB: 3-21                         [-1, 32, 96, 96]          [-1, 32, 96, 96]          --                        --                        --
|    |    |    └─Sequential: 4-121            [-1, 32, 96, 96]          [-1, 32, 96, 96]          --                        --                        --
|    |    |    |    └─Conv2d: 5-111           [-1, 32, 96, 96]          [-1, 32, 96, 96]          [32, 32, 3, 3]            9,248                     84,934,656
|    |    |    |    └─LeakyReLU: 5-112        [-1, 32, 96, 96]          [-1, 32, 96, 96]          --                        --                        --
|    |    |    └─Sequential: 4-122            [-1, 32, 96, 96]          [-1, 32, 96, 96]          --                        --                        --
|    |    |    |    └─Conv2d: 5-113           [-1, 32, 96, 96]          [-1, 32, 96, 96]          [32, 32, 3, 3]            9,248                     84,934,656
|    |    |    └─Conv2d: 4-123                [-1, 32, 96, 96]          [-1, 8, 96, 96]           [32, 8, 1, 1]             264                       2,359,296
|    |    |    └─Conv2d: 4-124                [-1, 8, 96, 96]           [-1, 8, 48, 48]           [8, 8, 3, 3]              584                       1,327,104
|    |    |    └─MaxPool2d: 4-125             [-1, 8, 48, 48]           [-1, 8, 14, 14]           --                        --                        --
|    |    |    └─Sequential: 4-126            [-1, 8, 14, 14]           [-1, 8, 14, 14]           --                        --                        --
|    |    |    |    └─Conv2d: 5-114           [-1, 8, 14, 14]           [-1, 8, 14, 14]           [8, 8, 3, 3]              584                       112,896
|    |    |    |    └─LeakyReLU: 5-115        [-1, 8, 14, 14]           [-1, 8, 14, 14]           --                        --                        --
|    |    |    └─Sequential: 4-127            [-1, 8, 14, 14]           [-1, 8, 14, 14]           --                        --                        --
|    |    |    |    └─Conv2d: 5-116           [-1, 8, 14, 14]           [-1, 8, 14, 14]           [8, 8, 3, 3]              584                       112,896
|    |    |    |    └─LeakyReLU: 5-117        [-1, 8, 14, 14]           [-1, 8, 14, 14]           --                        --                        --
|    |    |    └─Sequential: 4-128            [-1, 8, 96, 96]           [-1, 32, 96, 96]          --                        --                        --
|    |    |    |    └─Conv2d: 5-118           [-1, 8, 96, 96]           [-1, 32, 96, 96]          [8, 32, 1, 1]             288                       2,359,296
|    |    |    |    └─ReLU: 5-119             [-1, 32, 96, 96]          [-1, 32, 96, 96]          --                        --                        --
|    |    |    └─Sigmoid: 4-129               [-1, 32, 96, 96]          [-1, 32, 96, 96]          --                        --                        --
|    |    |    └─Sequential: 4-130            [-1, 32, 96, 96]          [-1, 32, 96, 96]          --                        --                        --
|    |    |    |    └─Conv2d: 5-120           [-1, 32, 96, 96]          [-1, 32, 96, 96]          [32, 32, 1, 1]            1,056                     9,437,184
|    |    |    └─Sequential: 4-131            [-1, 32, 96, 96]          [-1, 32, 96, 96]          --                        --                        --
|    |    |    |    └─Conv2d: 5-121           [-1, 32, 96, 96]          [-1, 32, 96, 96]          [1, 32, 5, 5]             832                       7,372,800
|    |    |    └─Sigmoid: 4-132               [-1, 32, 96, 96]          [-1, 32, 96, 96]          --                        --                        --
|    |    └─MAB: 3-22                         [-1, 32, 96, 96]          [-1, 32, 96, 96]          --                        --                        --
|    |    |    └─Sequential: 4-133            [-1, 32, 96, 96]          [-1, 32, 96, 96]          --                        --                        --
|    |    |    |    └─Conv2d: 5-122           [-1, 32, 96, 96]          [-1, 32, 96, 96]          [32, 32, 3, 3]            9,248                     84,934,656
|    |    |    |    └─LeakyReLU: 5-123        [-1, 32, 96, 96]          [-1, 32, 96, 96]          --                        --                        --
|    |    |    └─Sequential: 4-134            [-1, 32, 96, 96]          [-1, 32, 96, 96]          --                        --                        --
|    |    |    |    └─Conv2d: 5-124           [-1, 32, 96, 96]          [-1, 32, 96, 96]          [32, 32, 3, 3]            9,248                     84,934,656
|    |    |    └─Conv2d: 4-135                [-1, 32, 96, 96]          [-1, 8, 96, 96]           [32, 8, 1, 1]             264                       2,359,296
|    |    |    └─Conv2d: 4-136                [-1, 8, 96, 96]           [-1, 8, 48, 48]           [8, 8, 3, 3]              584                       1,327,104
|    |    |    └─MaxPool2d: 4-137             [-1, 8, 48, 48]           [-1, 8, 14, 14]           --                        --                        --
|    |    |    └─Sequential: 4-138            [-1, 8, 14, 14]           [-1, 8, 14, 14]           --                        --                        --
|    |    |    |    └─Conv2d: 5-125           [-1, 8, 14, 14]           [-1, 8, 14, 14]           [8, 8, 3, 3]              584                       112,896
|    |    |    |    └─LeakyReLU: 5-126        [-1, 8, 14, 14]           [-1, 8, 14, 14]           --                        --                        --
|    |    |    └─Sequential: 4-139            [-1, 8, 14, 14]           [-1, 8, 14, 14]           --                        --                        --
|    |    |    |    └─Conv2d: 5-127           [-1, 8, 14, 14]           [-1, 8, 14, 14]           [8, 8, 3, 3]              584                       112,896
|    |    |    |    └─LeakyReLU: 5-128        [-1, 8, 14, 14]           [-1, 8, 14, 14]           --                        --                        --
|    |    |    └─Sequential: 4-140            [-1, 8, 96, 96]           [-1, 32, 96, 96]          --                        --                        --
|    |    |    |    └─Conv2d: 5-129           [-1, 8, 96, 96]           [-1, 32, 96, 96]          [8, 32, 1, 1]             288                       2,359,296
|    |    |    |    └─ReLU: 5-130             [-1, 32, 96, 96]          [-1, 32, 96, 96]          --                        --                        --
|    |    |    └─Sigmoid: 4-141               [-1, 32, 96, 96]          [-1, 32, 96, 96]          --                        --                        --
|    |    |    └─Sequential: 4-142            [-1, 32, 96, 96]          [-1, 32, 96, 96]          --                        --                        --
|    |    |    |    └─Conv2d: 5-131           [-1, 32, 96, 96]          [-1, 32, 96, 96]          [32, 32, 1, 1]            1,056                     9,437,184
|    |    |    └─Sequential: 4-143            [-1, 32, 96, 96]          [-1, 32, 96, 96]          --                        --                        --
|    |    |    |    └─Conv2d: 5-132           [-1, 32, 96, 96]          [-1, 32, 96, 96]          [1, 32, 5, 5]             832                       7,372,800
|    |    |    └─Sigmoid: 4-144               [-1, 32, 96, 96]          [-1, 32, 96, 96]          --                        --                        --
|    |    └─Conv2d: 3-23                      [-1, 64, 96, 96]          [-1, 32, 96, 96]          --                        2,112                     2,080
|    |    └─Conv2d: 3-24                      [-1, 64, 96, 96]          [-1, 32, 96, 96]          --                        2,112                     2,080
|    |    └─Conv2d: 3-25                      [-1, 64, 96, 96]          [-1, 32, 96, 96]          --                        2,112                     2,080
|    |    └─Scale: 3-26                       [-1, 32, 96, 96]          [-1, 32, 96, 96]          --                        1                         0
|    |    └─Scale: 3-27                       [-1, 32, 96, 96]          [-1, 32, 96, 96]          --                        1                         0
|    └─FFG: 2-5                               [-1, 32, 96, 96]          [-1, 32, 96, 96]          --                        --                        --
|    |    └─MAB: 3-28                         [-1, 32, 96, 96]          [-1, 32, 96, 96]          --                        --                        --
|    |    |    └─Sequential: 4-145            [-1, 32, 96, 96]          [-1, 32, 96, 96]          --                        --                        --
|    |    |    |    └─Conv2d: 5-133           [-1, 32, 96, 96]          [-1, 32, 96, 96]          [32, 32, 3, 3]            9,248                     84,934,656
|    |    |    |    └─LeakyReLU: 5-134        [-1, 32, 96, 96]          [-1, 32, 96, 96]          --                        --                        --
|    |    |    └─Sequential: 4-146            [-1, 32, 96, 96]          [-1, 32, 96, 96]          --                        --                        --
|    |    |    |    └─Conv2d: 5-135           [-1, 32, 96, 96]          [-1, 32, 96, 96]          [32, 32, 3, 3]            9,248                     84,934,656
|    |    |    └─Conv2d: 4-147                [-1, 32, 96, 96]          [-1, 8, 96, 96]           [32, 8, 1, 1]             264                       2,359,296
|    |    |    └─Conv2d: 4-148                [-1, 8, 96, 96]           [-1, 8, 48, 48]           [8, 8, 3, 3]              584                       1,327,104
|    |    |    └─MaxPool2d: 4-149             [-1, 8, 48, 48]           [-1, 8, 14, 14]           --                        --                        --
|    |    |    └─Sequential: 4-150            [-1, 8, 14, 14]           [-1, 8, 14, 14]           --                        --                        --
|    |    |    |    └─Conv2d: 5-136           [-1, 8, 14, 14]           [-1, 8, 14, 14]           [8, 8, 3, 3]              584                       112,896
|    |    |    |    └─LeakyReLU: 5-137        [-1, 8, 14, 14]           [-1, 8, 14, 14]           --                        --                        --
|    |    |    └─Sequential: 4-151            [-1, 8, 14, 14]           [-1, 8, 14, 14]           --                        --                        --
|    |    |    |    └─Conv2d: 5-138           [-1, 8, 14, 14]           [-1, 8, 14, 14]           [8, 8, 3, 3]              584                       112,896
|    |    |    |    └─LeakyReLU: 5-139        [-1, 8, 14, 14]           [-1, 8, 14, 14]           --                        --                        --
|    |    |    └─Sequential: 4-152            [-1, 8, 96, 96]           [-1, 32, 96, 96]          --                        --                        --
|    |    |    |    └─Conv2d: 5-140           [-1, 8, 96, 96]           [-1, 32, 96, 96]          [8, 32, 1, 1]             288                       2,359,296
|    |    |    |    └─ReLU: 5-141             [-1, 32, 96, 96]          [-1, 32, 96, 96]          --                        --                        --
|    |    |    └─Sigmoid: 4-153               [-1, 32, 96, 96]          [-1, 32, 96, 96]          --                        --                        --
|    |    |    └─Sequential: 4-154            [-1, 32, 96, 96]          [-1, 32, 96, 96]          --                        --                        --
|    |    |    |    └─Conv2d: 5-142           [-1, 32, 96, 96]          [-1, 32, 96, 96]          [32, 32, 1, 1]            1,056                     9,437,184
|    |    |    └─Sequential: 4-155            [-1, 32, 96, 96]          [-1, 32, 96, 96]          --                        --                        --
|    |    |    |    └─Conv2d: 5-143           [-1, 32, 96, 96]          [-1, 32, 96, 96]          [1, 32, 5, 5]             832                       7,372,800
|    |    |    └─Sigmoid: 4-156               [-1, 32, 96, 96]          [-1, 32, 96, 96]          --                        --                        --
|    |    └─MAB: 3-29                         [-1, 32, 96, 96]          [-1, 32, 96, 96]          --                        --                        --
|    |    |    └─Sequential: 4-157            [-1, 32, 96, 96]          [-1, 32, 96, 96]          --                        --                        --
|    |    |    |    └─Conv2d: 5-144           [-1, 32, 96, 96]          [-1, 32, 96, 96]          [32, 32, 3, 3]            9,248                     84,934,656
|    |    |    |    └─LeakyReLU: 5-145        [-1, 32, 96, 96]          [-1, 32, 96, 96]          --                        --                        --
|    |    |    └─Sequential: 4-158            [-1, 32, 96, 96]          [-1, 32, 96, 96]          --                        --                        --
|    |    |    |    └─Conv2d: 5-146           [-1, 32, 96, 96]          [-1, 32, 96, 96]          [32, 32, 3, 3]            9,248                     84,934,656
|    |    |    └─Conv2d: 4-159                [-1, 32, 96, 96]          [-1, 8, 96, 96]           [32, 8, 1, 1]             264                       2,359,296
|    |    |    └─Conv2d: 4-160                [-1, 8, 96, 96]           [-1, 8, 48, 48]           [8, 8, 3, 3]              584                       1,327,104
|    |    |    └─MaxPool2d: 4-161             [-1, 8, 48, 48]           [-1, 8, 14, 14]           --                        --                        --
|    |    |    └─Sequential: 4-162            [-1, 8, 14, 14]           [-1, 8, 14, 14]           --                        --                        --
|    |    |    |    └─Conv2d: 5-147           [-1, 8, 14, 14]           [-1, 8, 14, 14]           [8, 8, 3, 3]              584                       112,896
|    |    |    |    └─LeakyReLU: 5-148        [-1, 8, 14, 14]           [-1, 8, 14, 14]           --                        --                        --
|    |    |    └─Sequential: 4-163            [-1, 8, 14, 14]           [-1, 8, 14, 14]           --                        --                        --
|    |    |    |    └─Conv2d: 5-149           [-1, 8, 14, 14]           [-1, 8, 14, 14]           [8, 8, 3, 3]              584                       112,896
|    |    |    |    └─LeakyReLU: 5-150        [-1, 8, 14, 14]           [-1, 8, 14, 14]           --                        --                        --
|    |    |    └─Sequential: 4-164            [-1, 8, 96, 96]           [-1, 32, 96, 96]          --                        --                        --
|    |    |    |    └─Conv2d: 5-151           [-1, 8, 96, 96]           [-1, 32, 96, 96]          [8, 32, 1, 1]             288                       2,359,296
|    |    |    |    └─ReLU: 5-152             [-1, 32, 96, 96]          [-1, 32, 96, 96]          --                        --                        --
|    |    |    └─Sigmoid: 4-165               [-1, 32, 96, 96]          [-1, 32, 96, 96]          --                        --                        --
|    |    |    └─Sequential: 4-166            [-1, 32, 96, 96]          [-1, 32, 96, 96]          --                        --                        --
|    |    |    |    └─Conv2d: 5-153           [-1, 32, 96, 96]          [-1, 32, 96, 96]          [32, 32, 1, 1]            1,056                     9,437,184
|    |    |    └─Sequential: 4-167            [-1, 32, 96, 96]          [-1, 32, 96, 96]          --                        --                        --
|    |    |    |    └─Conv2d: 5-154           [-1, 32, 96, 96]          [-1, 32, 96, 96]          [1, 32, 5, 5]             832                       7,372,800
|    |    |    └─Sigmoid: 4-168               [-1, 32, 96, 96]          [-1, 32, 96, 96]          --                        --                        --
|    |    └─MAB: 3-30                         [-1, 32, 96, 96]          [-1, 32, 96, 96]          --                        --                        --
|    |    |    └─Sequential: 4-169            [-1, 32, 96, 96]          [-1, 32, 96, 96]          --                        --                        --
|    |    |    |    └─Conv2d: 5-155           [-1, 32, 96, 96]          [-1, 32, 96, 96]          [32, 32, 3, 3]            9,248                     84,934,656
|    |    |    |    └─LeakyReLU: 5-156        [-1, 32, 96, 96]          [-1, 32, 96, 96]          --                        --                        --
|    |    |    └─Sequential: 4-170            [-1, 32, 96, 96]          [-1, 32, 96, 96]          --                        --                        --
|    |    |    |    └─Conv2d: 5-157           [-1, 32, 96, 96]          [-1, 32, 96, 96]          [32, 32, 3, 3]            9,248                     84,934,656
|    |    |    └─Conv2d: 4-171                [-1, 32, 96, 96]          [-1, 8, 96, 96]           [32, 8, 1, 1]             264                       2,359,296
|    |    |    └─Conv2d: 4-172                [-1, 8, 96, 96]           [-1, 8, 48, 48]           [8, 8, 3, 3]              584                       1,327,104
|    |    |    └─MaxPool2d: 4-173             [-1, 8, 48, 48]           [-1, 8, 14, 14]           --                        --                        --
|    |    |    └─Sequential: 4-174            [-1, 8, 14, 14]           [-1, 8, 14, 14]           --                        --                        --
|    |    |    |    └─Conv2d: 5-158           [-1, 8, 14, 14]           [-1, 8, 14, 14]           [8, 8, 3, 3]              584                       112,896
|    |    |    |    └─LeakyReLU: 5-159        [-1, 8, 14, 14]           [-1, 8, 14, 14]           --                        --                        --
|    |    |    └─Sequential: 4-175            [-1, 8, 14, 14]           [-1, 8, 14, 14]           --                        --                        --
|    |    |    |    └─Conv2d: 5-160           [-1, 8, 14, 14]           [-1, 8, 14, 14]           [8, 8, 3, 3]              584                       112,896
|    |    |    |    └─LeakyReLU: 5-161        [-1, 8, 14, 14]           [-1, 8, 14, 14]           --                        --                        --
|    |    |    └─Sequential: 4-176            [-1, 8, 96, 96]           [-1, 32, 96, 96]          --                        --                        --
|    |    |    |    └─Conv2d: 5-162           [-1, 8, 96, 96]           [-1, 32, 96, 96]          [8, 32, 1, 1]             288                       2,359,296
|    |    |    |    └─ReLU: 5-163             [-1, 32, 96, 96]          [-1, 32, 96, 96]          --                        --                        --
|    |    |    └─Sigmoid: 4-177               [-1, 32, 96, 96]          [-1, 32, 96, 96]          --                        --                        --
|    |    |    └─Sequential: 4-178            [-1, 32, 96, 96]          [-1, 32, 96, 96]          --                        --                        --
|    |    |    |    └─Conv2d: 5-164           [-1, 32, 96, 96]          [-1, 32, 96, 96]          [32, 32, 1, 1]            1,056                     9,437,184
|    |    |    └─Sequential: 4-179            [-1, 32, 96, 96]          [-1, 32, 96, 96]          --                        --                        --
|    |    |    |    └─Conv2d: 5-165           [-1, 32, 96, 96]          [-1, 32, 96, 96]          [1, 32, 5, 5]             832                       7,372,800
|    |    |    └─Sigmoid: 4-180               [-1, 32, 96, 96]          [-1, 32, 96, 96]          --                        --                        --
|    |    └─MAB: 3-31                         [-1, 32, 96, 96]          [-1, 32, 96, 96]          --                        --                        --
|    |    |    └─Sequential: 4-181            [-1, 32, 96, 96]          [-1, 32, 96, 96]          --                        --                        --
|    |    |    |    └─Conv2d: 5-166           [-1, 32, 96, 96]          [-1, 32, 96, 96]          [32, 32, 3, 3]            9,248                     84,934,656
|    |    |    |    └─LeakyReLU: 5-167        [-1, 32, 96, 96]          [-1, 32, 96, 96]          --                        --                        --
|    |    |    └─Sequential: 4-182            [-1, 32, 96, 96]          [-1, 32, 96, 96]          --                        --                        --
|    |    |    |    └─Conv2d: 5-168           [-1, 32, 96, 96]          [-1, 32, 96, 96]          [32, 32, 3, 3]            9,248                     84,934,656
|    |    |    └─Conv2d: 4-183                [-1, 32, 96, 96]          [-1, 8, 96, 96]           [32, 8, 1, 1]             264                       2,359,296
|    |    |    └─Conv2d: 4-184                [-1, 8, 96, 96]           [-1, 8, 48, 48]           [8, 8, 3, 3]              584                       1,327,104
|    |    |    └─MaxPool2d: 4-185             [-1, 8, 48, 48]           [-1, 8, 14, 14]           --                        --                        --
|    |    |    └─Sequential: 4-186            [-1, 8, 14, 14]           [-1, 8, 14, 14]           --                        --                        --
|    |    |    |    └─Conv2d: 5-169           [-1, 8, 14, 14]           [-1, 8, 14, 14]           [8, 8, 3, 3]              584                       112,896
|    |    |    |    └─LeakyReLU: 5-170        [-1, 8, 14, 14]           [-1, 8, 14, 14]           --                        --                        --
|    |    |    └─Sequential: 4-187            [-1, 8, 14, 14]           [-1, 8, 14, 14]           --                        --                        --
|    |    |    |    └─Conv2d: 5-171           [-1, 8, 14, 14]           [-1, 8, 14, 14]           [8, 8, 3, 3]              584                       112,896
|    |    |    |    └─LeakyReLU: 5-172        [-1, 8, 14, 14]           [-1, 8, 14, 14]           --                        --                        --
|    |    |    └─Sequential: 4-188            [-1, 8, 96, 96]           [-1, 32, 96, 96]          --                        --                        --
|    |    |    |    └─Conv2d: 5-173           [-1, 8, 96, 96]           [-1, 32, 96, 96]          [8, 32, 1, 1]             288                       2,359,296
|    |    |    |    └─ReLU: 5-174             [-1, 32, 96, 96]          [-1, 32, 96, 96]          --                        --                        --
|    |    |    └─Sigmoid: 4-189               [-1, 32, 96, 96]          [-1, 32, 96, 96]          --                        --                        --
|    |    |    └─Sequential: 4-190            [-1, 32, 96, 96]          [-1, 32, 96, 96]          --                        --                        --
|    |    |    |    └─Conv2d: 5-175           [-1, 32, 96, 96]          [-1, 32, 96, 96]          [32, 32, 1, 1]            1,056                     9,437,184
|    |    |    └─Sequential: 4-191            [-1, 32, 96, 96]          [-1, 32, 96, 96]          --                        --                        --
|    |    |    |    └─Conv2d: 5-176           [-1, 32, 96, 96]          [-1, 32, 96, 96]          [1, 32, 5, 5]             832                       7,372,800
|    |    |    └─Sigmoid: 4-192               [-1, 32, 96, 96]          [-1, 32, 96, 96]          --                        --                        --
|    |    └─Conv2d: 3-32                      [-1, 64, 96, 96]          [-1, 32, 96, 96]          --                        2,112                     2,080
|    |    └─Conv2d: 3-33                      [-1, 64, 96, 96]          [-1, 32, 96, 96]          --                        2,112                     2,080
|    |    └─Conv2d: 3-34                      [-1, 64, 96, 96]          [-1, 32, 96, 96]          --                        2,112                     2,080
|    |    └─Scale: 3-35                       [-1, 32, 96, 96]          [-1, 32, 96, 96]          --                        1                         0
|    |    └─Scale: 3-36                       [-1, 32, 96, 96]          [-1, 32, 96, 96]          --                        1                         0
├─Tail: 1-3                                   [-1, 32, 96, 96]          [-1, 3, 384, 384]         --                        --                        --
|    └─Conv2d: 2-6                            [-1, 32, 96, 96]          [-1, 48, 96, 96]          --                        13,920                    13,872
|    └─Scale: 2-7                             [-1, 48, 96, 96]          [-1, 48, 96, 96]          --                        1                         0
|    └─PixelShuffle: 2-8                      [-1, 48, 96, 96]          [-1, 3, 384, 384]         --                        --                        --
|    └─Conv2d: 2-9                            [-1, 32, 96, 96]          [-1, 48, 96, 96]          --                        38,496                    38,448
|    └─Scale: 2-10                            [-1, 48, 96, 96]          [-1, 48, 96, 96]          --                        1                         0
|    └─PixelShuffle: 2-11                     [-1, 48, 96, 96]          [-1, 3, 384, 384]         --                        --                        --
==========================================================================================================================================================================
Total params: 441,706
Trainable params: 441,706
Non-trainable params: 0
Total mult-adds (G): 3.09
==========================================================================================================================================================================
…
